model/keypoint_classifier/keypoint_classifier.tflite (tflite, 9344 bytes, 8 tensors)

sequential_2/dense_9/BiasAdd/ReadVariableOp f4 [20]
00000000: 3913 e63d 87e1 e73c 3ec7 123e 3213 38be
00000010: fd9d 7a3e 1d21 92bc 40e6 d7bd 05f9 8dbe
00000020: 1461 4e3e b6c3 3fbe 4a93 343c 22bb 8f3d
00000030: 53d5 f73d da46 b43e 7bb7 8d3e eefc c1bd
00000040: cc32 f33d 1e79 b9bc f312 a8bd e4c7 7137
0.11234135 0.028305782 0.14333817 -0.17976072 0.2447433 -0.017838055 -0.105419636 -0.2772905
0.2015422 -0.18727002 0.011021445 0.070181146 0.12101235 0.35210305 0.27679047 -0.09472071
0.11874923 -0.022640761 -0.08206739 1.441126e-05

sequential_2/dense_8/BiasAdd/ReadVariableOp f4 [84]
00000000: 8341 f3bd 4e10 0fbe 987d a9bd 03d7 dbbc
00000010: ff0e 3ebe e9b3 43be 2f45 45bd 63b6 54bd
00000020: 41bf b13d b4dd 93be 1686 cbbd 6714 69be
00000030: 3d8f 70be 375c 1abe 7513 b5bd ca72 3fbc
00000040: 4255 c1bd 569f 4e3e 00ec 2bbc 35e4 73bd
00000050: 0708 bdbd 060c 4fbe db33 1bbd 982e 83be
00000060: 99af 6fbe b803 b9bd b004 e2bd 19a5 95bd
00000070: e0fa 82bc f3d5 863d 4243 45bd 8d74 5bbe
00000080: 80df 2fbe dfbe 09be 99f2 86be d46d 2cbd
00000090: 6f50 a3bc e067 f5bd 24cc 06be 302f babe
000000a0: afd5 d2bd 7898 2cbe 1eb1 5fbe eb8e 30be
000000b0: e5c9 62be 1e60 af3c 9096 56be eb7a eebd
000000c0: 1c6c 77be 8bfc 3fbe e7ff 603c 7340 80bc
000000d0: f762 e53c 8d2e 93be 8500 05bd 08ba 28be
000000e0: 20c1 62be c165 09bd 8f82 81be f650 3ebe
000000f0: 50cd 01be 415f d8bc 34ed a6be abae 2fbe
00000100: d482 15be d4c9 8fbe 4b1d 60bd 706d 75be
00000110: fcab 82be ae87 4bbe 9dc1 eebd be82 22be
00000120: 0dfc 843d 80b1 5fbe 3a5a 0fbd f74b b6be
00000130: 5b3b 303e cbb9 32bd 1dbc a8be 10ff 70bc
00000140: 9e19 01be 982b 89bd 43c4 61be 565b 1d3d
-0.1187773 -0.13971063 -0.08275908 -0.026835924 -0.18560408 -0.19111599 -0.04816168 -0.05193175
0.08679057 -0.28880084 -0.09937684 -0.22761689 -0.23492141 -0.1507424 -0.08841602 -0.011685083
-0.0944009 0.2017797 -0.0104932785 -0.059543807 -0.09230047 -0.2021943 -0.03789125 -0.25621486
-0.23406829 -0.090339124 -0.1103605 -0.073068805 -0.015988767 0.06583776 -0.048159845 -0.2143118
-0.17175102 -0.13451718 -0.26356962 -0.042096928 -0.019935815 -0.11982703 -0.13163811 -0.36364126
-0.10294663 -0.16855037 -0.21844909 -0.17242019 -0.22147329 0.021408137 -0.20955873 -0.116445385
-0.24162334 -0.18748681 0.013732887 -0.015655732 0.028001292 -0.28746453 -0.0324712 -0.16477215
-0.22143984 -0.033544306 -0.2529492 -0.18585572 -0.12675977 -0.026412608 -0.32602847 -0.17156474
-0.14600688 -0.2808367 -0.054715436 -0.23967528 -0.2552184 -0.19875976 -0.116580226 -0.15870187
0.06493387 -0.21845055 -0.034998156 -0.35604832 0.17210142 -0.043634217 -0.3295602 -0.014709249
-0.12607428 -0.06697768 -0.22047524 0.038417183

sequential_2/dense_11/BiasAdd/ReadVariableOp f4 [6]
00000000: 165c 7f3b 43dd a0be 20ae 5abf 1fc3 6e3f
00000010: c36d b23e ad38 d53c
0.00389648 -0.3141881 -0.85421944 0.9326648 0.34849367 0.026028002

sequential_2/dense_10/BiasAdd/ReadVariableOp f4 [10]
00000000: 3250 3bbe c4f7 82be fc54 a93f 0e1e 253e
00000010: 7c6f 99be 1b7d 45be b0ca 14be c00d b83e
00000020: 99ff e33d f79e 853e
-0.18292311 -0.25579655 1.322906 0.16124746 -0.29967868 -0.19286005 -0.14530444 0.3594799
0.11132736 0.26097843

sequential_2/dense_10/MatMul f4 [10, 20]
00000000: 4ea3 df3e 6037 1cbf c10b ec3d f9f5 f03e
00000010: bab9 593f 0f60 7ebe 4c21 803f 3ad4 803e
00000020: f2ad b9be 9a54 463e e2db 483f f526 0abf
00000030: 50d4 513f 5097 103f 7e01 b33e db42 523e
00000040: 8972 99be 11b0 423e 6537 db3e fc1e ec3c
00000050: 522e d33e 4bcf 10bf 1a0e 15bf ead1 2a3f
00000060: b3a9 3a3e 258f c4be 8853 7f3f d914 2e3f
00000070: b82a e9be 2c76 5a3f 5531 da3e 26e8 b9be
00000080: 6804 dfbe 51e1 00be 641c 523e 24a9 193f
00000090: b960 68bf 93e2 e03e 7905 8b3f 2d0f 823f
000000a0: dc64 c7b9 c62d 3b3f fdd4 32bf 166b f93e
000000b0: 0226 1ebf 687b 543f 87e1 f43d 9830 04be
000000c0: 89ec 05bf b1d8 003f c22e 0f3e 3cbd 54bf
000000d0: 6bc6 893f 4599 7fbf c325 4fbf 30b7 a23f
000000e0: 5b92 dabe 09da 1fbf d9c7 61bd 8d79 843e
000000f0: 65e8 a2bf f4dc 053f e426 cb3d 15d0 fe3b
00000100: fb53 4cbf a13e 4dbc 6974 c9be fa83 593e
00000110: 006b 7e3e 20ab e4be 469e 2fbf 095e a83f
00000120: 9cf3 23bf 3840 303f a5c9 513f 1e9f 44be
00000130: 9f52 133f 73e3 97bd bcee 833f f896 983e
00000140: 7d18 163f 9220 0ebe f7a2 93be 2110 bbbe
00000150: 38b8 203f 6d9d 2bbe 8278 013f 923c 923e
00000160: fb3d 983e 4bfc 093e 833a 853d 1dde e73e
00000170: 22b0 95bf 7ff6 9a3e 890e 1f3f 7c4c 1fbf
00000180: d631 38bf a8d8 883f 22a7 233e 151d c13e
00000190: 2768 19bf 4f45 773e 5733 853e 6274 793f
000001a0: d86d d3bc 673e 8b3e 4022 273f 21ea 7d3f
000001b0: 68a6 083f 29a3 173f d6b5 013e 5f87 5b3f
000001c0: ae14 4dbe 0489 87be a5bf ae3e 22ef d33d
000001d0: 45f6 303f ce8e f6be 63a2 9b3e bd99 863e
000001e0: 2c82 bc3e f4cb 97bc 0700 9d3f 3aca 293e
000001f0: f5c5 a43f b8d0 0d3e c26c 2f3f ce23 333f
00000200: 2c12 203f 9c00 6a3f ad00 543f 1854 5bbf
00000210: 1e8e 4aba 4f3a 2239 08a1 943e a1a3 9f3d
00000220: 7656 983e b74f 273f ebde efbe 4693 01bf
00000230: cff9 883f fe44 9dbe 8353 da3e 9dfe c9be
00000240: 9730 663f 8480 28bf b824 c13d 6035 b3bd
00000250: 19e2 463f 3f4c 57be 3f0d 233d c155 f33e
00000260: a8bb 90bd 846d b83f 7e5b 813f 1af3 3cbf
00000270: dfc0 5f3e 2d90 453f 1cb0 2e3e c990 d73e
00000280: 2925 b23e acfe c3bd 1dcc 593f 4dc8 683f
00000290: 2976 be3e 39b4 6ebd 1f68 ec3d 3e0c 91be
000002a0: 6064 99be ce87 b7be 900a e53d 534d b4be
000002b0: c661 713e d518 323e 4809 c33e 8dae 9abd
000002c0: 43f0 463f 5b38 20be a255 ad3e 2ea4 cabd
000002d0: 76ca 8abe 3d35 d73e 254e 463f 6d07 14bf
000002e0: 2261 033f e739 563f 9390 8dbe 2dc7 923e
000002f0: 8fbd 3a3f 5f88 1e3f 236d 013f de48 eabe
00000300: b7b0 5cbf 9ca4 8dbd b95a f5be a525 3cbf
00000310: f06c 433f 5c0f 783d b903 94be 448c 2fbf
0.4367928 -0.61021996 0.115256794 0.47062662 0.8504902 -0.24841331 1.0010161 0.25161916
-0.36265522 0.1936821 0.78460515 -0.53965694 0.8196459 0.56480885 0.34962076 0.20533316
-0.29970196 0.19012477 0.428157 0.028823368 0.41246277 -0.56566304 -0.5822464 0.66726553
0.18228798 -0.3839046 0.99736834 0.6800056 -0.45540404 0.85336566 0.42615762 -0.36309928
-0.4355805 -0.12585951 0.20518643 0.60023713 -0.9077259 0.43922862 1.0861045 1.0160881
-0.00038031384 0.7311672 -0.69856244 0.48714513 -0.61776745 0.83000803 0.119570784 -0.12909162
-0.5231405 0.50330645 0.1398268 -0.8310125 1.0763677 -0.99843246 -0.80916995 1.2712154
-0.42689785 -0.6244207 -0.05512223 0.25873986 -1.2727171 0.5229027 0.09919527 0.00777627
-0.79815644 -0.012527139 -0.39346626 0.21241751 0.24845505 -0.44661808 -0.6860088 1.3153697
-0.64043593 0.6884799 0.8194831 -0.19201323 0.57547945 -0.07416429 1.0307231 0.2980268
0.58631116 -0.13879612 -0.2883527 -0.36535743 0.62781096 -0.16759272 0.50574505 0.28561836
0.29734787 0.13475148 0.06505301 0.45286646 -1.1694376 0.30266187 0.62131554 -0.6222608
-0.71951044 1.0691118 0.15981725 0.377175 -0.5992455 0.24147533 0.26015732 0.9744321
-0.025809214 0.27196047 0.65286636 0.9918538 0.53378916 0.5923334 0.12667021 0.85753435
-0.2002742 -0.26471722 0.34130588 0.10348345 0.6912578 -0.48155826 0.3039733 0.26289168
0.36818063 -0.01852987 1.2265633 0.1658105 1.2872912 0.13849151 0.68525326 0.6997651
0.6252773 0.9140718 0.8281353 -0.8567519 -0.00077268656 0.00015471246 0.29029107 0.077948816
0.29753464 0.6535601 -0.4684976 -0.50615346 1.0701236 -0.307167 0.4264184 -0.39452067
0.8991789 -0.658211 0.09430832 -0.08750415 0.7768875 -0.2102518 0.039807554 0.47526363
-0.070670426 1.4408422 1.0106046 -0.73808444 0.21850918 0.7717312 0.17059368 0.4210265
0.34793976 -0.09570059 0.8507708 0.90930635 0.37199524 -0.058277342 0.11543297 -0.28329653
-0.29959393 -0.35845798 0.11183655 -0.35215244 0.23572454 0.17392285 0.3809302 -0.07552824
0.7771036 -0.15646498 0.33854395 -0.09894596 -0.2710759 0.42032805 0.7746299 -0.5782383
0.5132009 0.836821 -0.27649364 0.28667584 0.72945493 0.61926836 0.50557154 -0.45758718
-0.86207145 -0.06916162 -0.47920778 -0.7349494 0.763381 0.060561523 -0.2890909 -0.68573403

sequential_2/dense_11/MatMul f4 [6, 10]
00000000: a324 efbe d122 0abf c6ed 1abf d7ca 63be
00000010: 08c2 00bf 5489 1e3f 4dec 643f eb63 62bf
00000020: ee03 df38 9224 873f b832 203f 615b 643f
00000030: ecfa a73d 2eee 8ebe fdb6 20bf ee10 183f
00000040: 1cd2 593e c960 afbf f3bc f13e c253 30bf
00000050: 9a32 933e 96cc 573f 2cef 34bf 0ba0 d5be
00000060: 693f 863f cc45 a4bd 9e7a e03e be80 453f
00000070: 953a 08bf 4acd cfbe 61f7 a2bf 66ca e9bd
00000080: 00fa c43f c614 29bf 62ee 3abe bdf1 e3bf
00000090: 3c6a 08c0 1a57 2bbf d5e7 b0bf bc4a 593d
000000a0: 796f 1a3f 99c8 d3bf f7ed 3bbf dbf3 1fbf
000000b0: 9d3d b2be a241 69bf c78a 163f ebcc ac3f
000000c0: 417c 493f 8646 64be 4203 31bf c92e 49bf
000000d0: 9fb9 71bf 5977 b13f c96d 973e 5717 1b3f
000000e0: 5060 b5be 8900 263f e755 8b3e 60dd 58be
-0.4670764 -0.53959376 -0.60519063 -0.22245346 -0.5029607 0.61928296 0.89423066 -0.8843371
0.000106342006 1.0558035 0.6257739 0.89201933 0.082021564 -0.27916092 -0.6277922 0.5940083
0.21271557 -1.3701411 0.4721447 -0.68877804 0.28749543 0.8429655 -0.7067745 -0.41723666
1.0488101 -0.08021125 0.4384355 0.7714957 -0.5321439 -0.4058631 -1.2731744 -0.114155576
1.5388794 -0.6604732 -0.18254998 -1.7808148 -2.131484 -0.6692978 -1.382075 0.053049788
0.60326344 -1.6545593 -0.7340998 -0.6248147 -0.34812632 -0.9111577 0.5880551 1.3500036
0.7870522 -0.22292528 -0.69145596 -0.78587013 -0.9442386 1.3864547 0.29575947 0.6058249
-0.35425043 0.64844567 0.27213976 -0.21178198

sequential_2/dense_9/MatMul i1 [20, 84] scale=0.008408602 zero_point=0
00000000: e6ee 193b bd04 f031 17f4 f4db f0e2 f211
00000010: 5005 18f8 fff4 04f4 bf2c 0015 1af6 cadc
00000020: bde2 e31f 123a dfdc c200 fbf2 0e2f f1d2
00000030: db04 34b5 16e6 f2d6 e1f8 d3f6 f217 df34
00000040: bdfa f5d5 c328 eb09 1ae0 01d0 270b d2e8
00000050: e9de 282d 3e06 fcd1 e5e8 e4e7 0713 064d
00000060: 0801 09ed c7f4 f1f5 ec0d d402 3210 3f40
00000070: e200 1329 2d29 00eb 1ac2 06e5 14d4 05f8
00000080: f6f7 120c 1b14 d219 e83f 0af7 fdd5 20f6
00000090: e8de 0ef0 ef09 1c23 30fa 17fa fb45 e3e1
000000a0: f62c 4327 01fa d2f8 ffcb ce29 06ca fbb0
000000b0: 04d3 0f43 05d0 12fc cd19 f3f1 09ed bbe7
000000c0: 0e11 3734 34ed 04f4 171a eeae 2db0 0af7
000000d0: 08ea b61d c008 1c0b 1939 1011 0307 1bed
000000e0: 3dce 14b0 feef f2f1 d6f8 fa1b 2718 f60e
000000f0: 055c 04d5 0af2 3c06 0df4 ed1f cd20 f2f6
-0.21862367 -0.15135485 0.21021506 0.49610755 -0.56337637 0.03363441 -0.13453764 0.41202152
0.19339785 -0.10090323 -0.10090323 -0.31111827 -0.13453764 -0.25225806 -0.11772043 0.14294624
0.6726882 0.04204301 0.20180646 -0.06726882 -0.008408602 -0.10090323 0.03363441 -0.10090323
-0.54655915 0.3699785 0.0 0.17658065 0.21862367 -0.08408602 -0.45406452 -0.3027097
-0.56337637 -0.25225806 -0.24384947 0.26066667 0.15135485 0.48769894 -0.27748388 -0.3027097
-0.52133334 0.0 -0.04204301 -0.11772043 0.11772043 0.3952043 -0.12612903 -0.3867957
-0.31111827 0.03363441 0.43724734 -0.63064516 0.18498924 -0.21862367 -0.11772043 -0.3531613
-0.26066667 -0.06726882 -0.3783871 -0.08408602 -0.11772043 0.19339785 -0.27748388 0.43724734
-0.56337637 -0.050451614 -0.09249462 -0.3615699 -0.51292473 0.3363441 -0.17658065 0.075677425
0.21862367 -0.26907527 0.008408602 -0.4036129 0.3279355 0.09249462 -0.3867957 -0.20180646
-0.19339785 -0.2858925 0.3363441 0.3783871 0.52133334 0.050451614 -0.03363441 -0.3952043
-0.22703226 -0.20180646 -0.23544087 -0.21021506 0.058860216 0.15976344 0.050451614 0.64746237
0.06726882 0.008408602 0.075677425 -0.15976344 -0.47929034 -0.10090323 -0.12612903 -0.09249462
-0.16817205 0.109311834 -0.3699785 0.016817205 0.42043012 0.13453764 0.52974194 0.53815055
-0.25225806 0.0 0.15976344 0.3447527 0.3783871 0.3447527 0.0 -0.17658065
0.21862367 -0.52133334 0.050451614 -0.22703226 0.16817205 -0.3699785 0.04204301 -0.06726882
-0.08408602 -0.075677425 0.15135485 0.10090323 0.22703226 0.16817205 -0.3867957 0.21021506
-0.20180646 0.52974194 0.08408602 -0.075677425 -0.025225807 -0.3615699 0.26907527 -0.08408602
-0.20180646 -0.2858925 0.11772043 -0.13453764 -0.14294624 0.075677425 0.23544087 0.2943011
0.4036129 -0.050451614 0.19339785 -0.050451614 -0.04204301 0.5801936 -0.24384947 -0.26066667
-0.08408602 0.3699785 0.56337637 0.3279355 0.008408602 -0.050451614 -0.3867957 -0.06726882
-0.008408602 -0.4456559 -0.42043012 0.3447527 0.050451614 -0.45406452 -0.04204301 -0.6726882
0.03363441 -0.3783871 0.12612903 0.56337637 0.04204301 -0.4036129 0.15135485 -0.03363441
-0.42883873 0.21021506 -0.109311834 -0.12612903 0.075677425 -0.15976344 -0.5801936 -0.21021506
0.11772043 0.14294624 0.46247312 0.43724734 0.43724734 -0.15976344 0.03363441 -0.10090323
0.19339785 0.21862367 -0.15135485 -0.6895054 0.3783871 -0.6726882 0.08408602 -0.075677425
0.06726882 -0.18498924 -0.62223655 0.24384947 -0.53815055 0.06726882 0.23544087 0.09249462
0.21021506 0.47929034 0.13453764 0.14294624 0.025225807 0.058860216 0.22703226 -0.15976344
0.51292473 -0.42043012 0.16817205 -0.6726882 -0.016817205 -0.14294624 -0.11772043 -0.12612903
-0.3531613 -0.06726882 -0.050451614 0.22703226 0.3279355 0.20180646 -0.08408602 0.11772043
0.04204301 0.7735914 0.03363441 -0.3615699 0.08408602 -0.11772043 0.5045161 0.050451614
0.109311834 -0.10090323 -0.15976344 0.26066667 -0.42883873 0.26907527 -0.11772043 -0.08408602

sequential_2/dense_8/MatMul i1 [84, 42] scale=0.005617479 zero_point=0
00000000: f1fa 4e06 061a 152d e418 10eb e02a 010a
00000010: 00c6 091d 0df2 11ea 03ef f5f8 eb05 02d3
00000020: fea4 1b1b 0253 e823 08d6 1913 f6db effe
00000030: faf7 e4d7 e324 eac4 0721 4226 efdd f1d9
00000040: 290a 0e2b c918 ea01 04ed 19fd e0bb 04f9
00000050: e4de 24f2 0e1f 0af9 ea08 0214 2722 e8c4
00000060: ecfe d900 07b6 f9ea f601 0036 3435 10f1
00000070: f824 02e6 2d05 0dfe dff1 ce01 0fe4 da23
00000080: f0ed cc11 0e22 3a2d d602 f225 28c7 e8a8
00000090: 0df9 1019 1af3 f200 2bf4 02e7 d93d ed36
000000a0: 2c11 dddd e3d0 12ef 16e1 ddea cf0c e006
000000b0: dfcf d4fc df0a 1609 53d7 e700 f22d ed04
000000c0: 08e5 e228 e02c 2c1d f003 131b 20f3 0ced
000000d0: cacb f822 05b8 fd1a 2d15 0514 33db 0a1c
000000e0: 1626 fff9 29f5 1b22 f6f1 a8e7 371a 1b08
000000f0: e1fa c803 2128 45fd ea24 0208 f00f fed1
-0.084262185 -0.033704873 0.43816334 0.033704873 0.033704873 0.14605445 0.117967054 0.25278655
-0.15728942 0.1348195 0.08987966 -0.117967054 -0.17975932 0.23593411 0.005617479 0.05617479
0.0 -0.32581377 0.050557308 0.16290689 0.07302722 -0.07864471 0.09549714 -0.12358454
0.016852437 -0.09549714 -0.06179227 -0.04493983 -0.117967054 0.028087394 0.011234958 -0.25278655
-0.011234958 -0.51680803 0.15167193 0.15167193 0.011234958 0.46625075 -0.1348195 0.19661176
0.04493983 -0.23593411 0.14043698 0.1067321 -0.05617479 -0.20784672 -0.09549714 -0.011234958
-0.033704873 -0.050557308 -0.15728942 -0.23031664 -0.16290689 0.20222923 -0.12358454 -0.33704874
0.039322354 0.18537681 0.37075362 0.2134642 -0.09549714 -0.19661176 -0.084262185 -0.21908167
0.23031664 0.05617479 0.07864471 0.2415516 -0.30896133 0.1348195 -0.12358454 0.005617479
0.022469915 -0.1067321 0.14043698 -0.016852437 -0.17975932 -0.38760605 0.022469915 -0.039322354
-0.15728942 -0.19099428 0.20222923 -0.07864471 0.07864471 0.17414184 0.05617479 -0.039322354
-0.12358454 0.04493983 0.011234958 0.11234958 0.21908167 0.19099428 -0.1348195 -0.33704874
-0.11234958 -0.011234958 -0.21908167 0.0 0.039322354 -0.41569343 -0.039322354 -0.12358454
-0.05617479 0.005617479 0.0 0.30334386 0.2921089 0.2977264 0.08987966 -0.084262185
-0.04493983 0.20222923 0.011234958 -0.14605445 0.25278655 0.028087394 0.07302722 -0.011234958
-0.18537681 -0.084262185 -0.28087395 0.005617479 0.084262185 -0.15728942 -0.2134642 0.19661176
-0.08987966 -0.1067321 -0.2921089 0.09549714 0.07864471 0.19099428 0.32581377 0.25278655
-0.23593411 0.011234958 -0.07864471 0.20784672 0.22469915 -0.3201963 -0.1348195 -0.49433815
0.07302722 -0.039322354 0.08987966 0.14043698 0.14605445 -0.07302722 -0.07864471 0.0
0.2415516 -0.06740975 0.011234958 -0.14043698 -0.21908167 0.3426662 -0.1067321 0.30334386
0.24716908 0.09549714 -0.19661176 -0.19661176 -0.16290689 -0.269639 0.101114616 -0.09549714
0.12358454 -0.17414184 -0.19661176 -0.12358454 -0.27525645 0.06740975 -0.17975932 0.033704873
-0.18537681 -0.27525645 -0.24716908 -0.022469915 -0.18537681 0.05617479 0.12358454 0.050557308
0.46625075 -0.23031664 -0.14043698 0.0 -0.07864471 0.25278655 -0.1067321 0.022469915
0.04493983 -0.15167193 -0.16852437 0.22469915 -0.17975932 0.24716908 0.24716908 0.16290689
-0.08987966 0.016852437 0.1067321 0.15167193 0.17975932 -0.07302722 0.06740975 -0.1067321
-0.30334386 -0.2977264 -0.04493983 0.19099428 0.028087394 -0.40445846 -0.016852437 0.14605445
0.25278655 0.117967054 0.028087394 0.11234958 0.28649142 -0.20784672 0.05617479 0.15728942
0.12358454 0.2134642 -0.005617479 -0.039322354 0.23031664 -0.06179227 0.15167193 0.19099428
-0.05617479 -0.084262185 -0.49433815 -0.14043698 0.30896133 0.14605445 0.15167193 0.04493983
-0.17414184 -0.033704873 -0.31457883 0.016852437 0.18537681 0.22469915 0.38760605 -0.016852437
-0.12358454 0.20222923 0.011234958 0.04493983 -0.08987966 0.084262185 -0.011234958 -0.26402152
